{"format": "torch", "nodes": [{"name": "transformer", "id": 139643632200576, "class_name": "Transf(\n  (transformer): TransformerEncoder(\n    (layers): ModuleList(\n      (0): TransformerEncoderLayer(\n        (self_attn): MultiheadAttention(\n          (out_proj): NonDynamicallyQuantizableLinear(in_features=5, out_features=5, bias=True)\n        )\n        (linear1): Linear(in_features=5, out_features=20, bias=True)\n        (dropout): Dropout(p=0.1, inplace=False)\n        (linear2): Linear(in_features=20, out_features=5, bias=True)\n        (norm1): LayerNorm((5,), eps=1e-05, elementwise_affine=True)\n        (norm2): LayerNorm((5,), eps=1e-05, elementwise_affine=True)\n        (dropout1): Dropout(p=0.1, inplace=False)\n        (dropout2): Dropout(p=0.1, inplace=False)\n      )\n      (1): TransformerEncoderLayer(\n        (self_attn): MultiheadAttention(\n          (out_proj): NonDynamicallyQuantizableLinear(in_features=5, out_features=5, bias=True)\n        )\n        (linear1): Linear(in_features=5, out_features=20, bias=True)\n        (dropout): Dropout(p=0.1, inplace=False)\n        (linear2): Linear(in_features=20, out_features=5, bias=True)\n        (norm1): LayerNorm((5,), eps=1e-05, elementwise_affine=True)\n        (norm2): LayerNorm((5,), eps=1e-05, elementwise_affine=True)\n        (dropout1): Dropout(p=0.1, inplace=False)\n        (dropout2): Dropout(p=0.1, inplace=False)\n      )\n      (2): TransformerEncoderLayer(\n        (self_attn): MultiheadAttention(\n          (out_proj): NonDynamicallyQuantizableLinear(in_features=5, out_features=5, bias=True)\n        )\n        (linear1): Linear(in_features=5, out_features=20, bias=True)\n        (dropout): Dropout(p=0.1, inplace=False)\n        (linear2): Linear(in_features=20, out_features=5, bias=True)\n        (norm1): LayerNorm((5,), eps=1e-05, elementwise_affine=True)\n        (norm2): LayerNorm((5,), eps=1e-05, elementwise_affine=True)\n        (dropout1): Dropout(p=0.1, inplace=False)\n        (dropout2): Dropout(p=0.1, inplace=False)\n      )\n      (3): TransformerEncoderLayer(\n        (self_attn): MultiheadAttention(\n          (out_proj): NonDynamicallyQuantizableLinear(in_features=5, out_features=5, bias=True)\n        )\n        (linear1): Linear(in_features=5, out_features=20, bias=True)\n        (dropout): Dropout(p=0.1, inplace=False)\n        (linear2): Linear(in_features=20, out_features=5, bias=True)\n        (norm1): LayerNorm((5,), eps=1e-05, elementwise_affine=True)\n        (norm2): LayerNorm((5,), eps=1e-05, elementwise_affine=True)\n        (dropout1): Dropout(p=0.1, inplace=False)\n        (dropout2): Dropout(p=0.1, inplace=False)\n      )\n      (4): TransformerEncoderLayer(\n        (self_attn): MultiheadAttention(\n          (out_proj): NonDynamicallyQuantizableLinear(in_features=5, out_features=5, bias=True)\n        )\n        (linear1): Linear(in_features=5, out_features=20, bias=True)\n        (dropout): Dropout(p=0.1, inplace=False)\n        (linear2): Linear(in_features=20, out_features=5, bias=True)\n        (norm1): LayerNorm((5,), eps=1e-05, elementwise_affine=True)\n        (norm2): LayerNorm((5,), eps=1e-05, elementwise_affine=True)\n        (dropout1): Dropout(p=0.1, inplace=False)\n        (dropout2): Dropout(p=0.1, inplace=False)\n      )\n      (5): TransformerEncoderLayer(\n        (self_attn): MultiheadAttention(\n          (out_proj): NonDynamicallyQuantizableLinear(in_features=5, out_features=5, bias=True)\n        )\n        (linear1): Linear(in_features=5, out_features=20, bias=True)\n        (dropout): Dropout(p=0.1, inplace=False)\n        (linear2): Linear(in_features=20, out_features=5, bias=True)\n        (norm1): LayerNorm((5,), eps=1e-05, elementwise_affine=True)\n        (norm2): LayerNorm((5,), eps=1e-05, elementwise_affine=True)\n        (dropout1): Dropout(p=0.1, inplace=False)\n        (dropout2): Dropout(p=0.1, inplace=False)\n      )\n      (6): TransformerEncoderLayer(\n        (self_attn): MultiheadAttention(\n          (out_proj): NonDynamicallyQuantizableLinear(in_features=5, out_features=5, bias=True)\n        )\n        (linear1): Linear(in_features=5, out_features=20, bias=True)\n        (dropout): Dropout(p=0.1, inplace=False)\n        (linear2): Linear(in_features=20, out_features=5, bias=True)\n        (norm1): LayerNorm((5,), eps=1e-05, elementwise_affine=True)\n        (norm2): LayerNorm((5,), eps=1e-05, elementwise_affine=True)\n        (dropout1): Dropout(p=0.1, inplace=False)\n        (dropout2): Dropout(p=0.1, inplace=False)\n      )\n      (7): TransformerEncoderLayer(\n        (self_attn): MultiheadAttention(\n          (out_proj): NonDynamicallyQuantizableLinear(in_features=5, out_features=5, bias=True)\n        )\n        (linear1): Linear(in_features=5, out_features=20, bias=True)\n        (dropout): Dropout(p=0.1, inplace=False)\n        (linear2): Linear(in_features=20, out_features=5, bias=True)\n        (norm1): LayerNorm((5,), eps=1e-05, elementwise_affine=True)\n        (norm2): LayerNorm((5,), eps=1e-05, elementwise_affine=True)\n        (dropout1): Dropout(p=0.1, inplace=False)\n        (dropout2): Dropout(p=0.1, inplace=False)\n      )\n      (8): TransformerEncoderLayer(\n        (self_attn): MultiheadAttention(\n          (out_proj): NonDynamicallyQuantizableLinear(in_features=5, out_features=5, bias=True)\n        )\n        (linear1): Linear(in_features=5, out_features=20, bias=True)\n        (dropout): Dropout(p=0.1, inplace=False)\n        (linear2): Linear(in_features=20, out_features=5, bias=True)\n        (norm1): LayerNorm((5,), eps=1e-05, elementwise_affine=True)\n        (norm2): LayerNorm((5,), eps=1e-05, elementwise_affine=True)\n        (dropout1): Dropout(p=0.1, inplace=False)\n        (dropout2): Dropout(p=0.1, inplace=False)\n      )\n      (9): TransformerEncoderLayer(\n        (self_attn): MultiheadAttention(\n          (out_proj): NonDynamicallyQuantizableLinear(in_features=5, out_features=5, bias=True)\n        )\n        (linear1): Linear(in_features=5, out_features=20, bias=True)\n        (dropout): Dropout(p=0.1, inplace=False)\n        (linear2): Linear(in_features=20, out_features=5, bias=True)\n        (norm1): LayerNorm((5,), eps=1e-05, elementwise_affine=True)\n        (norm2): LayerNorm((5,), eps=1e-05, elementwise_affine=True)\n        (dropout1): Dropout(p=0.1, inplace=False)\n        (dropout2): Dropout(p=0.1, inplace=False)\n      )\n      (10): TransformerEncoderLayer(\n        (self_attn): MultiheadAttention(\n          (out_proj): NonDynamicallyQuantizableLinear(in_features=5, out_features=5, bias=True)\n        )\n        (linear1): Linear(in_features=5, out_features=20, bias=True)\n        (dropout): Dropout(p=0.1, inplace=False)\n        (linear2): Linear(in_features=20, out_features=5, bias=True)\n        (norm1): LayerNorm((5,), eps=1e-05, elementwise_affine=True)\n        (norm2): LayerNorm((5,), eps=1e-05, elementwise_affine=True)\n        (dropout1): Dropout(p=0.1, inplace=False)\n        (dropout2): Dropout(p=0.1, inplace=False)\n      )\n      (11): TransformerEncoderLayer(\n        (self_attn): MultiheadAttention(\n          (out_proj): NonDynamicallyQuantizableLinear(in_features=5, out_features=5, bias=True)\n        )\n        (linear1): Linear(in_features=5, out_features=20, bias=True)\n        (dropout): Dropout(p=0.1, inplace=False)\n        (linear2): Linear(in_features=20, out_features=5, bias=True)\n        (norm1): LayerNorm((5,), eps=1e-05, elementwise_affine=True)\n        (norm2): LayerNorm((5,), eps=1e-05, elementwise_affine=True)\n        (dropout1): Dropout(p=0.1, inplace=False)\n        (dropout2): Dropout(p=0.1, inplace=False)\n      )\n      (12): TransformerEncoderLayer(\n        (self_attn): MultiheadAttention(\n          (out_proj): NonDynamicallyQuantizableLinear(in_features=5, out_features=5, bias=True)\n        )\n        (linear1): Linear(in_features=5, out_features=20, bias=True)\n        (dropout): Dropout(p=0.1, inplace=False)\n        (linear2): Linear(in_features=20, out_features=5, bias=True)\n        (norm1): LayerNorm((5,), eps=1e-05, elementwise_affine=True)\n        (norm2): LayerNorm((5,), eps=1e-05, elementwise_affine=True)\n        (dropout1): Dropout(p=0.1, inplace=False)\n        (dropout2): Dropout(p=0.1, inplace=False)\n      )\n      (13): TransformerEncoderLayer(\n        (self_attn): MultiheadAttention(\n          (out_proj): NonDynamicallyQuantizableLinear(in_features=5, out_features=5, bias=True)\n        )\n        (linear1): Linear(in_features=5, out_features=20, bias=True)\n        (dropout): Dropout(p=0.1, inplace=False)\n        (linear2): Linear(in_features=20, out_features=5, bias=True)\n        (norm1): LayerNorm((5,), eps=1e-05, elementwise_affine=True)\n        (norm2): LayerNorm((5,), eps=1e-05, elementwise_affine=True)\n        (dropout1): Dropout(p=0.1, inplace=False)\n        (dropout2): Dropout(p=0.1, inplace=False)\n      )\n      (14): TransformerEncoderLayer(\n        (self_attn): MultiheadAttention(\n          (out_proj): NonDynamicallyQuantizableLinear(in_features=5, out_features=5, bias=True)\n        )\n        (linear1): Linear(in_features=5, out_features=20, bias=True)\n        (dropout): Dropout(p=0.1, inplace=False)\n        (linear2): Linear(in_features=20, out_features=5, bias=True)\n        (norm1): LayerNorm((5,), eps=1e-05, elementwise_affine=True)\n        (norm2): LayerNorm((5,), eps=1e-05, elementwise_affine=True)\n        (dropout1): Dropout(p=0.1, inplace=False)\n        (dropout2): Dropout(p=0.1, inplace=False)\n      )\n      (15): TransformerEncoderLayer(\n        (self_attn): MultiheadAttention(\n          (out_proj): NonDynamicallyQuantizableLinear(in_features=5, out_features=5, bias=True)\n        )\n        (linear1): Linear(in_features=5, out_features=20, bias=True)\n        (dropout): Dropout(p=0.1, inplace=False)\n        (linear2): Linear(in_features=20, out_features=5, bias=True)\n        (norm1): LayerNorm((5,), eps=1e-05, elementwise_affine=True)\n        (norm2): LayerNorm((5,), eps=1e-05, elementwise_affine=True)\n        (dropout1): Dropout(p=0.1, inplace=False)\n        (dropout2): Dropout(p=0.1, inplace=False)\n      )\n      (16): TransformerEncoderLayer(\n        (self_attn): MultiheadAttention(\n          (out_proj): NonDynamicallyQuantizableLinear(in_features=5, out_features=5, bias=True)\n        )\n        (linear1): Linear(in_features=5, out_features=20, bias=True)\n        (dropout): Dropout(p=0.1, inplace=False)\n        (linear2): Linear(in_features=20, out_features=5, bias=True)\n        (norm1): LayerNorm((5,), eps=1e-05, elementwise_affine=True)\n        (norm2): LayerNorm((5,), eps=1e-05, elementwise_affine=True)\n        (dropout1): Dropout(p=0.1, inplace=False)\n        (dropout2): Dropout(p=0.1, inplace=False)\n      )\n      (17): TransformerEncoderLayer(\n        (self_attn): MultiheadAttention(\n          (out_proj): NonDynamicallyQuantizableLinear(in_features=5, out_features=5, bias=True)\n        )\n        (linear1): Linear(in_features=5, out_features=20, bias=True)\n        (dropout): Dropout(p=0.1, inplace=False)\n        (linear2): Linear(in_features=20, out_features=5, bias=True)\n        (norm1): LayerNorm((5,), eps=1e-05, elementwise_affine=True)\n        (norm2): LayerNorm((5,), eps=1e-05, elementwise_affine=True)\n        (dropout1): Dropout(p=0.1, inplace=False)\n        (dropout2): Dropout(p=0.1, inplace=False)\n      )\n      (18): TransformerEncoderLayer(\n        (self_attn): MultiheadAttention(\n          (out_proj): NonDynamicallyQuantizableLinear(in_features=5, out_features=5, bias=True)\n        )\n        (linear1): Linear(in_features=5, out_features=20, bias=True)\n        (dropout): Dropout(p=0.1, inplace=False)\n        (linear2): Linear(in_features=20, out_features=5, bias=True)\n        (norm1): LayerNorm((5,), eps=1e-05, elementwise_affine=True)\n        (norm2): LayerNorm((5,), eps=1e-05, elementwise_affine=True)\n        (dropout1): Dropout(p=0.1, inplace=False)\n        (dropout2): Dropout(p=0.1, inplace=False)\n      )\n      (19): TransformerEncoderLayer(\n        (self_attn): MultiheadAttention(\n          (out_proj): NonDynamicallyQuantizableLinear(in_features=5, out_features=5, bias=True)\n        )\n        (linear1): Linear(in_features=5, out_features=20, bias=True)\n        (dropout): Dropout(p=0.1, inplace=False)\n        (linear2): Linear(in_features=20, out_features=5, bias=True)\n        (norm1): LayerNorm((5,), eps=1e-05, elementwise_affine=True)\n        (norm2): LayerNorm((5,), eps=1e-05, elementwise_affine=True)\n        (dropout1): Dropout(p=0.1, inplace=False)\n        (dropout2): Dropout(p=0.1, inplace=False)\n      )\n    )\n  )\n  (fc1): Linear(in_features=20, out_features=5, bias=True)\n  (fc2): Linear(in_features=5, out_features=1, bias=True)\n)", "parameters": [["transformer.layers.0.self_attn.in_proj_weight", [15, 5]], ["transformer.layers.0.self_attn.in_proj_bias", [15]], ["transformer.layers.0.self_attn.out_proj.weight", [5, 5]], ["transformer.layers.0.self_attn.out_proj.bias", [5]], ["transformer.layers.0.linear1.weight", [20, 5]], ["transformer.layers.0.linear1.bias", [20]], ["transformer
…
